…
2018-06-02 20:09:12.156982: I tensorflow/core/common_runtime/gpu/gpu_device.cc:1053] Created TensorFlow device (/job:localhost/replica:0/task:0/device:GPU:0 with 21559 MB memory) -> physical GPU (device: 0, name: Tesla P40, pci bus id: 0000:82:00.0, compute capability: 6.1)
WARNING:tensorflow:Variable *= will be deprecated. Use variable.assign_mul if you want assignment to the variable value or 'x = x * y' if you want a new python Tensor object.
Indexing word vectors.
Mixed Data - 1000 Pubmed - Unbalanced - 64 batch - 25 epochs 

_________________________________________________________________
Layer (type)                 Output Shape              Param #   
=================================================================
embedding_1 (Embedding)      (None, 100, 200)          3525600   
_________________________________________________________________
bidirectional_1 (Bidirection (None, 100, 600)          1202400   
_________________________________________________________________
batch_normalization_1 (Batch (None, 100, 600)          2400      
_________________________________________________________________
bidirectional_2 (Bidirection (None, 100, 400)          1281600   
_________________________________________________________________
batch_normalization_2 (Batch (None, 100, 400)          1600      
_________________________________________________________________
gru_1 (GRU)                  (None, 100)               150300    
_________________________________________________________________
batch_normalization_3 (Batch (None, 100)               400       
_________________________________________________________________
dense_1 (Dense)              (None, 10)                1010      
_________________________________________________________________
batch_normalization_4 (Batch (None, 10)                40        
_________________________________________________________________
dense_2 (Dense)              (None, 1)                 11        
=================================================================
Total params: 6,165,361
Trainable params: 2,637,541
Non-trainable params: 3,527,820
_________________________________________________________________
None
Epoch 1/25

  64/6204 [..............................] - ETA: 9:56 - loss: 74.3868 - acc: 0.6094
 128/6204 [..............................] - ETA: 5:22 - loss: 73.3910 - acc: 0.5859
…
