…
2018-06-02 15:37:24.881209: I tensorflow/core/common_runtime/gpu/gpu_device.cc:1053] Created TensorFlow device (/job:localhost/replica:0/task:0/device:GPU:0 with 14883 MB memory) -> physical GPU (device: 0, name: Tesla V100-SXM2-16GB, pci bus id: 0000:04:00.0, compute capability: 7.0)
WARNING:tensorflow:Variable *= will be deprecated. Use variable.assign_mul if you want assignment to the variable value or 'x = x * y' if you want a new python Tensor object.
Indexing word vectors.
Baseline Pubmed - 512 batch - 20 epochs

_________________________________________________________________
Layer (type)                 Output Shape              Param #   
=================================================================
embedding_1 (Embedding)      (None, 100, 200)          4000000   
_________________________________________________________________
bidirectional_1 (Bidirection (None, 100, 600)          1202400   
_________________________________________________________________
batch_normalization_1 (Batch (None, 100, 600)          2400      
_________________________________________________________________
bidirectional_2 (Bidirection (None, 100, 400)          1281600   
_________________________________________________________________
batch_normalization_2 (Batch (None, 100, 400)          1600      
_________________________________________________________________
gru_1 (GRU)                  (None, 100)               150300    
_________________________________________________________________
batch_normalization_3 (Batch (None, 100)               400       
_________________________________________________________________
dense_1 (Dense)              (None, 10)                1010      
_________________________________________________________________
batch_normalization_4 (Batch (None, 10)                40        
_________________________________________________________________
dense_2 (Dense)              (None, 1)                 11        
=================================================================
Total params: 6,639,761
Trainable params: 2,637,541
Non-trainable params: 4,002,220
_________________________________________________________________
None
Epoch 1/20

   512/244525 [..............................] - ETA: 37:38 - loss: 74.3700 - acc: 0.5117
  1024/244525 [..............................] - ETA: 21:15 - loss: 73.2335 - acc: 0.5293
…
