…
2018-06-02 15:32:30.386073: I tensorflow/core/common_runtime/gpu/gpu_device.cc:1053] Created TensorFlow device (/job:localhost/replica:0/task:0/device:GPU:0 with 21559 MB memory) -> physical GPU (device: 0, name: Tesla P40, pci bus id: 0000:03:00.0, compute capability: 6.1)
WARNING:tensorflow:Variable *= will be deprecated. Use variable.assign_mul if you want assignment to the variable value or 'x = x * y' if you want a new python Tensor object.
Indexing word vectors.
Baseline Pubmed - 512 batch - 10 epochs

_________________________________________________________________
Layer (type)                 Output Shape              Param #   
=================================================================
embedding_1 (Embedding)      (None, 100, 200)          4000000   
_________________________________________________________________
bidirectional_1 (Bidirection (None, 100, 600)          1202400   
_________________________________________________________________
batch_normalization_1 (Batch (None, 100, 600)          2400      
_________________________________________________________________
bidirectional_2 (Bidirection (None, 100, 400)          1281600   
_________________________________________________________________
batch_normalization_2 (Batch (None, 100, 400)          1600      
_________________________________________________________________
gru_1 (GRU)                  (None, 100)               150300    
_________________________________________________________________
batch_normalization_3 (Batch (None, 100)               400       
_________________________________________________________________
dense_1 (Dense)              (None, 10)                1010      
_________________________________________________________________
batch_normalization_4 (Batch (None, 10)                40        
_________________________________________________________________
dense_2 (Dense)              (None, 1)                 11        
=================================================================
Total params: 6,639,761
Trainable params: 2,637,541
Non-trainable params: 4,002,220
_________________________________________________________________
None
Epoch 1/10

   512/244525 [..............................] - ETA: 45:02 - loss: 74.3352 - acc: 0.5449
  1024/244525 [..............................] - ETA: 24:52 - loss: 73.2261 - acc: 0.5723
…
