…
2018-06-02 14:13:53.457509: I tensorflow/core/common_runtime/gpu/gpu_device.cc:1053] Created TensorFlow device (/job:localhost/replica:0/task:0/device:GPU:0 with 21559 MB memory) -> physical GPU (device: 0, name: Tesla P40, pci bus id: 0000:03:00.0, compute capability: 6.1)
WARNING:tensorflow:Variable *= will be deprecated. Use variable.assign_mul if you want assignment to the variable value or 'x = x * y' if you want a new python Tensor object.
Indexing word vectors.
Baseline Tweet balanced - 128 batch - 25 epochs

_________________________________________________________________
Layer (type)                 Output Shape              Param #   
=================================================================
embedding_1 (Embedding)      (None, 100, 200)          1018400   
_________________________________________________________________
bidirectional_1 (Bidirection (None, 100, 600)          1202400   
_________________________________________________________________
batch_normalization_1 (Batch (None, 100, 600)          2400      
_________________________________________________________________
bidirectional_2 (Bidirection (None, 100, 400)          1281600   
_________________________________________________________________
batch_normalization_2 (Batch (None, 100, 400)          1600      
_________________________________________________________________
gru_1 (GRU)                  (None, 100)               150300    
_________________________________________________________________
batch_normalization_3 (Batch (None, 100)               400       
_________________________________________________________________
dense_1 (Dense)              (None, 10)                1010      
_________________________________________________________________
batch_normalization_4 (Batch (None, 10)                40        
_________________________________________________________________
dense_2 (Dense)              (None, 1)                 11        
=================================================================
Total params: 3,658,161
Trainable params: 2,637,541
Non-trainable params: 1,020,620
_________________________________________________________________
None
Epoch 1/25

 128/1109 [==>...........................] - ETA: 50s - loss: 74.5080 - acc: 0.4688
 256/1109 [=====>........................] - ETA: 24s - loss: 73.4810 - acc: 0.5156
…
